web+flask/best_model.pth (torch, 89186 bytes, 9 tensors)

user_embedding.weight f4 [50, 32]
00000000: a84c 0c3f 6495 5d3f 61fb 1b3f 3957 5fbf
00000010: d765 ea3f 61b8 973f 935b 2c3f 3c45 143e
00000020: 6311 abbd 7d54 c0bf d6ef a43d 05da 88bf
00000030: f551 c63e 9852 2d3f b83e 283d 9d24 dfbf
00000040: 1f56 73be 6c67 b23f 4258 423f bc39 03bf
00000050: 1d3b f0bf cfff d0bf 77ea 903f d15e 03c0
00000060: 2950 dcbf 2f22 b6bf da8b 823d f730 543e
00000070: 7e05 e93f 0c87 1640 4640 eabf 7266 db3e
00000080: 249b 15c0 9e7e 343f 387c c63e b4cb 843f
00000090: 62b2 94bf b558 943d a0f1 c3bf ddc4 d93f
000000a0: e43b 873f 8972 853f c207 bd3e 8f38 80bf
000000b0: a953 083d 8701 c83f 053d 80bf 1490 3f3f
000000c0: 796a b73f cb22 b23e 50b0 b43f ab34 89bc
000000d0: 0349 553f 81c9 27be 62fd aabf ba32 afbf
000000e0: 195c 973f eb60 aabe 2c75 25bf 45a2 e6bd
000000f0: ce47 343e 1e64 45be 5835 ed3d 4154 81bf
00000100: 5206 163f a8d1 a93e 0cf7 f5be a9c6 b33f
00000110: 1cdd 72be bc2f a7bf 4c63 4ebe c3a9 8d3f
00000120: 4e08 95bf d5eb 65bf 624c 583e ea90 713e
00000130: 8581 b43f cfd3 ad3f 279b 2cc0 4ae5 1840
00000140: 9a82 673f 3e3f 233f 3fee 453f ceb2 da3e
00000150: 58d9 913e e294 90bf d9a5 cf3f 6ce4 b4be
00000160: 29ac 9dbe ead6 86be faa9 02c0 138f cf3f
00000170: a889 bb3f dcae 043f ab90 0d40 1fb3 0ebf
00000180: ce99 e53f 5f17 0040 5cc2 843e b5b0 e03f
00000190: 1da1 a23f 32f6 ebbe 3d22 b3bd 337c a9bf
000001a0: 6361 c0bf 6b4c 1a3f 2342 8dbd 9f43 35bf
000001b0: 4fbd 0d3f 492d ae3f 89bc ba3f 3d33 c43c
000001c0: 0bad 193f cbcb 6ebf 845b b23f 8090 9d3e
000001d0: 18ac 23bf c018 1d3f 5f48 553e fbf4 e0be
000001e0: cabd 593f 38bb 3b3f 5292 16be 2534 d4be
000001f0: 706e b3be a686 14bf 768d 8bbf 9b56 2dbf
00000200: 834e 22c0 c92e 94bf dc2e 35be 1d04 0c40
00000210: 1bca c6bf 23fd b9bf b2e0 723f 9fb6 14be
00000220: 01e2 b0bf 7427 b03e 306f 383f fad2 033f
00000230: d698 153f c2cc 8a3e 109b febc ebbf 223f
00000240: 05cf 67bf c1ae 9fbe af39 2d3e bc50 d53e
00000250: f107 cb3f 6171 c1bd b267 803d f08b c13e
00000260: cd30 cebe 765e 81be 5549 b3bf 34c8 2d3f
00000270: f162 d2be b83c a1be e71e 823f 8c94 583f
00000280: 615f 80bd 9f5e 5fbf 35f0 9abf e5b5 9bbd
00000290: 842d d63e a75f 2e3f c354 483e 9760 21c0
000002a0: 7772 debf df17 29bf 5b07 a6bf aa61 2b3e
000002b0: e0a1 27bf 922b c03f 8f03 d23f 1189 a0be
000002c0: d63b 15bf 6d52 c53f eb84 fd3e 645d 67bf
000002d0: d7c2 fbbe 2906 0240 cbbe 47bf 0132 8ebf
000002e0: f141 90be b026 6ebf 2ac9 3cbf 6ad5 21bf
000002f0: c625 953c b0f8 a23f 412f cdbd bde9 4dbd
00000300: 4faf 3abe 2375 8ebf bb78 c43e 4c18 30be
00000310: ff56 9abf 43d2 a83f 7c8d 64bf fdee bbbe
00000320: f30d cabd f323 0fbf ac0b 60bf f083 c2bf
00000330: 47f4 dc3f aa35 053f 3ff5 2b3f d63b 2ebe
00000340: cc96 3f3f e97f 883f 7b36 2f3f 60e7 1a3f
00000350: a7af 013f 93ab bbbe f6ef 2f3f ddd7 dfbf
00000360: 732d 483e 01fd f9bf 6f15 edbf 2233 1cbf
00000370: f2e3 293f 2cfa 923e 0ff4 f6be 6fac 0cc0
00000380: ac61 15be 04e3 993f 38ed 8c3f 3d5b 70bf
00000390: e4fe 1cbf 55ec c63d ce62 00c0 aac2 213f
000003a0: 82b2 e83e 442a 553e 693c db3f a154 a93c
000003b0: a5cd 7fbf 1a01 e1be e892 18bf 163a 4f3f
000003c0: 4c21 96bf eb73 993e 7168 bebe eb04 d1be
000003d0: dcaf b5bd f4b1 213e 3281 fb3f 803f c1bf
000003e0: 5cb4 41bf 67eb ebbe ccbd c43e b163 82be
000003f0: 6d77 c23f 7777 2ebf 01dd 183d b60c 233f
0.5480447 0.86556077 0.6093045 -0.87242466 1.8312329 1.1853143 0.6732723 0.14479536
-0.08352926 -1.5025784 0.080535576 -1.0691534 0.38734403 0.67704153 0.04107544 -1.7433048
-0.23763321 1.3937812 0.7591592 -0.5125997 -1.876804 -1.6328067 1.1321553 -2.0526621
-1.7211963 -1.4229182 0.06374331 0.20721804 1.8204801 2.3519926 -1.8300865 0.42851597
-2.337594 0.705057 0.38766646 1.0374665 -1.1616938 0.07243482 -1.5308113 1.7013203
1.0565152 1.0425578 0.3691998 -1.001726 0.03328291 1.5625466 -1.0018622 0.7482922
1.4329368 0.3479217 1.4116306 -0.016748747 0.8331453 -0.16385461 -1.3358576 -1.3687356
1.1824981 -0.33277068 -0.64631915 -0.11261419 0.17605516 -0.19276473 0.1158244 -1.0103837
0.58603394 0.33167768 -0.48040044 1.4045001 -0.23717159 -1.3061442 -0.20155066 1.1067432
-1.1643159 -0.89812976 0.21122888 0.23590437 1.4102026 1.3580264 -2.6969697 2.3889947
0.9043366 0.63768375 0.7731666 0.42714542 0.28486133 -1.1295435 1.6222488 -0.35330522
-0.3079541 -0.2633584 -2.0416245 1.6215538 1.4651384 0.51829314 2.2119548 -0.5574207
1.7937562 2.0014265 0.25929534 1.7553927 1.2705418 -0.4608627 -0.08746765 -1.3241028
-1.502972 0.60272855 -0.0689738 -0.70806307 0.55366987 1.360757 1.4588786 0.023950214
0.6002967 -0.93279713 1.3934178 0.30774307 -0.6393447 0.6136589 0.20828389 -0.43936905
0.8505522 0.7333255 -0.14704254 -0.41446033 -0.35045195 -0.5801796 -1.0902545 -0.67710274
-2.536042 -1.1576778 -0.17693657 2.187751 -1.5530428 -1.4530376 0.9487411 -0.1452279
-1.3818971 0.344051 0.7204466 0.514938 0.58436334 0.27109343 -0.031079799 0.63574094
-0.9055026 -0.31188014 0.16916536 0.41663158 1.5861799 -0.094454534 0.06269778 0.37802076
-0.40271607 -0.2526738 -1.4006754 0.6788361 -0.4109111 -0.31491637 1.0165681 0.84601665
-0.06268192 -0.87253755 -1.2104555 -0.07603053 0.418316 0.68114704 0.19563584 -2.5215204
-1.7378682 -0.6605205 -1.2970995 0.16736475 -0.65481377 1.5013297 1.6407336 -0.31354573
-0.5829443 1.5415779 0.4951547 -0.9037688 -0.49172089 2.031626 -0.780255 -1.110901
-0.2817531 -0.9302778 -0.7374445 -0.6321627 0.018206488 1.2732143 -0.100187786 -0.05027174
-0.18230937 -1.1129497 0.3837336 -0.17196769 -1.2057799 1.3189167 -0.8927839 -0.3670577
-0.09865942 -0.5591423 -0.8751781 -1.5196514 1.7262048 0.5203501 0.6717109 -0.17015013
0.7483947 1.0664035 0.68442506 0.605093 0.5065865 -0.36654338 0.68725526 -1.7487751
0.19548588 -1.9530336 -1.8522166 -0.6101552 0.6636344 0.2870649 -0.48233077 -2.1980245
-0.1458804 1.2022405 1.1009893 -0.9388922 -0.6132643 0.097130455 -2.0060306 0.6318766
0.4544869 0.20816904 1.7127811 0.020670237 -0.99923164 -0.43946153 -0.5959916 0.8094801
-1.1728911 0.2997125 -0.37189057 -0.40824065 -0.08871433 0.1579054 1.9648802 -1.5097504
-0.7566583 -0.46078035 0.38426054 -0.25466684 1.5192696 -0.6815104 0.03732014 0.6369127

item_embedding.weight f4 [55, 32]
00000000: 3989 11bf 4c12 883d ac95 23bf f3cc b03e
00000010: c23b 493e df8b c7bf 9ed5 20be a14b 2cbe
00000020: a55d 0040 c579 0540 0612 083e 8cba 803f
00000030: 8c8d bf3f 215a ddbf 04ac ea3f d96a 21c0
00000040: 5183 dbbe cb93 00c0 a9ed 933f 9e8e 383f
00000050: 9137 07c0 b982 573f 126c 29bf 4018 4a3f
00000060: 4e8b 99be 7278 88bf 0d54 3ebd 7c6e 2e3f
00000070: 4c8d 80bf 6da8 a53f 3427 f3be b028 9b3e
00000080: d1ea 293f f291 743e 7adb 24bf 8bb0 9c3f
00000090: eb1d 0ebf cd0c 223f d315 68bf 6614 483e
000000a0: 5d41 51bf b63d 5f3f 83c0 eb3f 5721 973f
000000b0: 721b 0340 5487 9c3f 8c02 1c40 7435 b7be
000000c0: 45ac 883d 8b8d b73e c1cc 90bd 5cd2 1a3f
000000d0: 1842 613f 3ed7 7ebf de3e 3640 c29d 35be
000000e0: c985 65be 9401 10bf c199 e03e da9a 06bf
000000f0: e689 0340 f6a2 683f a190 c73f d0be 04bf
00000100: 5fdc a8be 8bc0 29bf ca47 67bf c775 193f
00000110: 8f3f c33f d4a7 9bbe 36fe ae3f a4c3 393e
00000120: 64d6 90be 7e42 68bf 8950 9bbc 0dc0 91be
00000130: 3859 173f 0d78 57bf aaba 4940 d7b0 a1bf
00000140: bf2f c6bd b56f 8abc 71b2 af3c b3f9 a63e
00000150: 9d5a 4dbe bc03 223e 14f0 d2be e6f1 24bf
00000160: 05c5 49bf 8a5d d63d 175f 42bf 74d8 c4bc
00000170: 3866 b73e ec24 92bf f4f4 38b8 1f03 483d
00000180: 08e0 2e3f dd41 4c3e daec 45bf e655 4c3f
00000190: b10f 0fc0 578e e3bf 5f80 7abe 18b6 1840
000001a0: 15dd 183e ff7f 8b3f 7156 7dbf 969f 19bf
000001b0: baa1 68be 6351 79bf ab7e 113f 48d0 1540
000001c0: 1524 753c 9beb f1bf 354e 1ebf 0510 f13e
000001d0: ae7d 8ebf 0488 4bbf 602c 4abf 26c4 333f
000001e0: eee3 8abe d7e8 ff3e 468b 96bf 4c03 14be
000001f0: 6656 9c3f e414 04c0 eda4 003f f516 6abf
00000200: 2cab 26c0 3214 06bf be8b 93bf b3d6 3bbf
00000210: 15e0 39bf 1a50 adbf 8499 47bf d1af adbf
00000220: 9305 40bf 793b 453c 9746 0bc0 6085 f03e
00000230: fc99 ad3d 343d 823f 1732 3d3f 44ca 173f
00000240: 7a38 bfbd aaf9 ccbe c541 913e b144 8a3f
00000250: e4f4 923d 5254 6bbe 9595 07bd 5d7f efbe
00000260: ec0c b8bf 915a 573f bd07 89bf 3500 64bf
00000270: aa32 4a3f 9cc1 e0be c564 0e3e b9a3 b6bf
00000280: d0ec 353e 8c4b d5bf dd6e 733e fd81 c4bd
00000290: c871 c23e d9e7 e63e 920c 88bf 5020 d33e
000002a0: e8b2 12bf ea7e cb3e 8f63 cabf a924 943e
000002b0: cf70 52bf 27e8 86bf e512 983f e692 e8be
000002c0: 32ba cdbe 3d62 e6be d2f9 ef3f 5383 88bf
000002d0: c332 4d3f f242 23bf f7f0 abbf 6f10 c83f
000002e0: 780e 123f 18f1 56bf 5b5d 843f e9fa aebf
000002f0: 635f a8bd 8d7b 8f3f 9597 04bf 08a6 24be
00000300: 7c52 09c0 da66 12bf e1ba 113f bbd8 bbbf
00000310: 9ccc 5e3e e6c3 8a3e 2927 713f be87 39be
00000320: 80a6 083f 2a4c 1a3f caba 273f 82e4 5ebb
00000330: 9c6f b5be d700 7b3f 60ed ffbe 893f 253f
00000340: da6d 99be c853 b3be 09ab 23bc 2417 02be
00000350: 61cc 32bf 9aa3 2d3f 49dc fabd 0961 aebf
00000360: 142e 883e 34e1 58bf 3791 b2be 648e 82bd
00000370: 386e fdbe 32a3 5cbf b8dd 25bd 6496 a23e
00000380: d4cc a53e b5e7 2d3f 3ea5 3fbc 809a aabf
00000390: c63e 833e fd1a 033f 4e9b 253e 62fa 0f3f
000003a0: fdfe 90bf 56b3 efbe 5c14 d63f b6d4 4bbd
000003b0: a497 55be bdff 703f 6272 ddbf ebd2 9abe
000003c0: c747 763f 81de 2dbf 24e5 37bf 2151 59be
000003d0: d69c 17be dedf dd3e 439e 83be 7bf5 41bf
000003e0: 42ee babf f73b 39bf 6590 3dbd fa79 c0bf
000003f0: 888b 29bf d68a b5bf d4ea 7fbe db66 e53e
-0.5685001 0.06644115 -0.63900256 0.34531364 0.19651702 -1.558956 -0.15706488 -0.16825725
2.0057156 2.0855572 0.13288125 1.005693 1.4965072 -1.729313 1.8333745 -2.5221465
-0.42873624 -2.0090206 1.1556903 0.72092617 -2.1127665 0.8418384 -0.6618053 0.7894325
-0.29989094 -1.0661757 -0.046466876 0.68137336 -1.004312 1.2942024 -0.47490847 0.3030448
0.66373926 0.23883799 -0.64397395 1.2241377 -0.555144 0.6330078 -0.906583 0.19539031
-0.8174036 0.8720354 1.8418125 1.180705 2.0485501 1.2228799 2.4376554 -0.3578297
0.06673483 0.35850176 -0.07070304 0.6047723 0.87991476 -0.99547184 2.847587 -0.17735961
-0.22414316 -0.5625241 0.43867305 -0.52580035 2.0552917 0.9087366 1.5591012 -0.51853657
-0.3298063 -0.6630942 -0.90343916 0.5994534 1.5253772 -0.3040148 1.3671329 0.18141037
-0.28288567 -0.9072646 -0.0189593 -0.28466836 0.5912051 -0.8416756 3.152018 -1.2632092
-0.096770756 -0.01689897 0.021447392 0.3261238 -0.20054097 0.15821737 -0.4119879 -0.6443161
-0.7881625 0.1046706 -0.75926346 -0.024028994 0.35820174 -1.1417518 -4.409715e-05 0.0488311
0.68310595 0.19947 -0.7731453 0.7981857 -2.2353327 -1.7777814 -0.24463032 2.3861141
0.14928086 1.0898436 -0.98960024 -0.60009134 -0.22717944 -0.9738981 0.56833905 2.3408375
0.014962216 -1.8900026 -0.61838084 0.47082534 -1.1132104 -0.7950442 -0.7897396 0.70221174
-0.27127022 0.4998233 -1.1761253 -0.14454383 1.2213867 -2.063775 0.50251657 -0.9144128
-2.6041975 -0.52374566 -1.1527021 -0.7337448 -0.7260755 -1.354007 -0.7796862 -1.356928
-0.75008506 0.012038105 -2.1761835 0.46976757 0.08476636 1.0174928 0.73904556 0.5929301
-0.09336944 -0.4003423 0.2837049 1.0802213 0.071756154 -0.22981384 -0.033101637 -0.46776858
-1.4378943 0.8412257 -1.0705487 -0.89062816 0.7898356 -0.43897712 0.13905628 -1.4268714
0.17766118 -1.666368 0.2377276 -0.09595106 0.37977433 0.4509876 -1.0628836 0.4123559
-0.5730424 0.39745265 -1.5811633 0.2893422 -0.8220338 -1.0539597 1.1880766 -0.45424575
-0.40181118 -0.44996825 1.8748114 -1.0665077 0.8015558 -0.63774025 -1.3432912 1.5630015
0.5705333 -0.8396163 1.034099 -1.3670322 -0.082213186 1.120958 -0.51793796 -0.16078961
-2.1456594 -0.5718819 0.5692578 -1.4675516 0.2175774 0.27102584 0.9420038 -0.18118188
0.5337906 0.6027247 0.6551939 -0.0034010713 -0.35436714 0.98048156 -0.4998579 0.6455007
-0.29966623 -0.35024858 -0.009989508 -0.1270414 -0.6984311 0.6782776 -0.12249047 -1.3623363
0.26597655 -0.8471863 -0.34876415 -0.06374815 -0.49498153 -0.86186516 -0.04049465 0.31755364
0.32382834 0.6793168 -0.011697112 -1.33284 0.2563383 0.51213056 0.16172525 0.5624143
-1.1327816 -0.4681651 1.6724963 -0.049763404 -0.20858628 0.94140226 -1.7300532 -0.30239043
0.96203274 -0.6791764 -0.71834016 -0.21222354 -0.14805922 0.4333486 -0.25706682 -0.757652
-1.460396 -0.72357124 -0.046280283 -1.5037224 -0.6622853 -1.4182994 -0.24991924 0.44805035

description_dense.weight f4 [32, 300]
00000000: b926 ee3c c8b9 b3bc 9bf3 3f3d edb0 ab3c
00000010: 059c 053d b43c 4ebc 8628 4b3d f62c 8a3d
00000020: 8ee9 89bb d4c7 193d 0cb7 6b3d b002 4dbb
00000030: 54bf 963d 9685 2dbd 78c5 ab3c 2091 853d
00000040: afb1 d73c a58d b0bc cf99 dabb f8cd db3c
00000050: 6ca6 c3bc b93a 8e3d ca95 893d 4448 83bc
00000060: a050 85bc f179 963d 9533 423a c1b6 203d
00000070: 11ac 29bc 2357 593c bda9 cebc 7679 5fbb
00000080: fe41 0c3d af4c 58bc 9df7 8f3c 9162 d43c
00000090: 1cbb bcbc 3367 0b3d f3a9 70bb 9dae 7b3d
000000a0: 995f 623d 8832 383d 2bb6 a2bc b876 463d
000000b0: 62db 8e3d f184 ee3c cc75 883d c4d3 283d
000000c0: b450 253d f984 a63d f49b a6bc 8358 d5b9
000000d0: e816 cc3c ccb6 a03d 951c c73d 453c 773a
000000e0: cb9b 2cbc 46d0 683d 02fc 533c 5e31 803d
000000f0: d5cb b23b 7360 773d 10cb a93d 7581 033c
00000100: ae4a 283d 5ded c73a 965f 8ebc 15ae 8d3d
00000110: 8bda a93d c19d 5f3c 83a6 0abd 71aa 7ebc
00000120: 7141 9cbc cd54 d2bb ceae 953d 6d7e 4a3d
00000130: 1784 9abc 417d 1a3d 8053 5a3d 3f2c 843d
00000140: 84f1 c2bb 7f25 ffba 9a87 5b3d ad8e 963c
00000150: d19d f0bc 39d4 8d3d a874 c7ba 4e04 55bc
00000160: cbe1 513d 6dd3 8e3d 853e ab3b 6b3b 743d
00000170: 87fa 813d 631f 6c3b ab9b ec3c eac5 843d
00000180: 56c6 af3c 9cc9 bebc a9f9 d93c 863b 773d
00000190: 164a 893d 0185 4c3d 3d37 973d e370 90bb
000001a0: 8608 afbc 569f 3e3d 829b c03d 0fcb 38bb
000001b0: 4079 1c3d f22a 163d af1f 403d 763c 6cbc
000001c0: 6299 2a3d 3661 633d 9044 833d 1571 863d
000001d0: 1d7c 8c3d e07c e2bc 3c9c 793d 5b3b 553d
000001e0: a91a a93d adc6 89bc d0ba fc3c 99b8 9c3d
000001f0: 9dac bbbc e59e c8bc 4464 6c3d d55f 9d3d
00000200: 913e 853c f5b9 ad3b b838 d6bc ea90 db3c
00000210: 2cce 083d 8674 0fbc af6f 8a3d 8b05 573a
00000220: 574b 8a3d 3fb0 b63c 9285 753d 9b79 d83c
00000230: 4da3 cd3c 7963 dfbc 51c1 f63b 120e 833c
00000240: ad90 85bc 78a2 cc3b de27 183c b94f 883d
00000250: b4f1 46bd 1e5a 01bd 37a9 bdbb be67 8a3c
00000260: 3afd 6e3d a39b 5dbc f02d 5f3d da2a 093d
00000270: 73d1 8cbb 6538 76bb 460d 8d3d c19a 253d
00000280: 36e6 f2bc 1ddb 0ebc 8dcb f1bc 6e64 303d
00000290: c754 793d b119 4d3d ee6f 8dbc a5e7 0b3d
000002a0: 9e8e 5b3d 970f 973d ca39 693d 804b 623d
000002b0: 1df8 db3c faa0 f23c 6446 b3bc b923 e9bc
000002c0: ebfa 0dbc fcbb afbc 97cc 143d 82ff db3c
000002d0: 4957 153c 5ef3 9d3c 9932 af3b af38 c03c
000002e0: 799e 963c e755 9d3d 6b93 813c 94d9 123d
000002f0: 4c9c 1c3d eb2a 073d d587 2d3d 320f 03bd
00000300: 36a4 103c 3f97 a83d b6c8 8d3c 4325 e3bc
00000310: 6435 dd3c e5fc 96bc 4d7f 9d3d 3422 8c3d
00000320: f71e cfbc 4b14 8c3d df35 4f3d da88 e4bc
00000330: 8925 a2bc 113d 893d 6756 a73d 9308 453d
00000340: c13f 2cbc 2695 b83c e559 bdbc 160a 9f3d
00000350: 47fd 02bd 1c70 eebb 4dd4 3b3c 7370 243d
00000360: efa1 973b de2e 793d 3e44 e6bc 993d dd3b
00000370: edac 933c ddda 1a3c b03d a7bc 0a0e 1e3b
00000380: 3618 9cb8 e994 f8bc ef5a 883d b3c7 4fbd
00000390: b0c8 903d 0b7e b43c 7e0e 933d c61a ee3c
000003a0: 89c0 9a3d 5ca0 393d 4652 d33c 7aac 7039
000003b0: 5553 093d d75c e73c 3fff 1dbc 4308 91bc
000003c0: 902f a1ba 0841 99bc c23c 8cbb 9993 1dbd
000003d0: f7ef 5b3d f285 153d abd8 e03c 63aa 283d
000003e0: 26d3 0e3d 2b1e b93c dde7 f0bb 8312 1b3d
000003f0: 4728 a03b a17f ffbc 3748 13bd 0c31 0ebd
0.029071199 -0.021939173 0.04686318 0.020958388 0.032619495 -0.012587715 0.049599193 0.06746857
-0.00420875 0.037544087 0.057547614 -0.003128212 0.07360712 -0.042363726 0.020968184 0.06521821
0.026329843 -0.021551916 -0.0066711674 0.026831612 -0.023883067 0.06944794 0.06718023 -0.01602567
-0.016273797 0.07347477 0.0007408199 0.039236788 -0.010355965 0.013265404 -0.025227422 -0.0034099496
0.034242623 -0.013201877 0.017574126 0.025925906 -0.02303844 0.034033965 -0.0036722391 0.06144582
0.05526695 0.044970065 -0.019862255 0.048453063 0.06975438 0.029116126 0.06663093 0.04121758
0.040360168 0.08130831 -0.020338036 -0.00040692472 0.024913266 0.07847366 0.097222485 0.0009431283
-0.010535191 0.05683925 0.012938501 0.06259416 0.0054564276 0.060394716 0.08290684 0.00802647
0.041086845 0.0015253235 -0.017379563 0.06917969 0.08293637 0.013648451 -0.033850204 -0.015543566
-0.019074174 -0.0064188004 0.07308732 0.049436975 -0.018861813 0.037717108 0.053302288 0.06453752
-0.005949201 -0.0019466131 0.053596117 0.01837858 -0.029372128 0.06925244 -0.0015217261 -0.013001515
0.051240724 0.0697392 0.005225959 0.059626978 0.063466124 0.003602945 0.028882822 0.064830616
0.021456879 -0.023289494 0.026608305 0.0603595 0.06703584 0.04993153 0.07383583 -0.0044079884
-0.021366369 0.046538673 0.09404661 -0.0028197204 0.03820157 0.03666205 0.046905216 -0.014418712
0.041650183 0.05551263 0.06409562 0.065645374 0.0685961 -0.027647436 0.060940012 0.05205856
0.08257038 -0.016818369 0.030850798 0.07652397 -0.022909457 -0.02448983 0.05771281 0.07684294
0.016265186 0.005301709 -0.026150092 0.026802499 0.033399746 -0.008755809 0.06759583 0.0008202425
0.06752651 0.022300838 0.059941836 0.026425174 0.025102282 -0.027269112 0.0075303693 0.01599792
-0.016304338 0.0062449537 0.009286849 0.06655831 -0.04857035 -0.031580083 -0.0057879942 0.016895171
0.058346964 -0.013525876 0.05448717 0.033488132 -0.004297429 -0.0037570235 0.06887297 0.040430788
-0.029650789 -0.008719233 -0.029516006 0.043064527 0.060871866 0.05007333 -0.017265286 0.03415646
0.053602807 0.073760204 0.056939878 0.055247784 0.026851708 0.029617775 -0.02188415 -0.028459417
-0.008665781 -0.021451943 0.036327925 0.026855234 0.009115049 0.019281086 0.005346608 0.023464529
0.018386113 0.076824 0.015817365 0.03585203 0.038234994 0.032999914 0.042365868 -0.031996913
0.008828213 0.08231973 0.01730762 -0.027727729 0.027002998 -0.018431136 0.07690296 0.06842461
-0.02528332 0.06839808 0.050588485 -0.027897287 -0.019793289 0.067011006 0.08170777 0.04810388
-0.010513247 0.022532057 -0.023114154 0.077655956 -0.031979825 -0.007276548 0.011464191 0.040146302
0.0046274583 0.06083571 -0.028108712 0.006751728 0.018026793 0.009451595 -0.020415157 0.0024117255
-7.443169e-05 -0.030344443 0.06657969 -0.050727557 0.07069528 0.022032758 0.071804985 0.029065501
0.075562544 0.045318946 0.025796067 0.00022952436 0.033526737 0.028242512 -0.009643375 -0.017704135
-0.00122975 -0.018707767 -0.004279704 -0.03847084 0.053695645 0.036504693 0.027447065 0.04117812
0.034869336 0.022597393 -0.007351859 0.03785945 0.004887614 -0.031188788 -0.03595754 -0.034714743

description_dense.bias f4 [32]
00000000: 5df2 e13d 9f60 89bb 0c76 5d3c 56c5 443c
00000010: dec3 e43d 60c7 8a3d 7f8f b73d 8288 523c
00000020: 6760 e8bc 3ca6 f73c 4712 24bd 5780 a0bb
00000030: 188c 043d f885 393d 190d 5abd a572 6eba
00000040: fde5 c63d 03f4 813c b7cb d8bc 93b8 373d
00000050: f076 dc3c edbd ce3d f019 523d 28da 09bb
00000060: ab41 ae3d 43af 8f3d c915 8b3b 7117 2cbd
00000070: 6b9c d23d c31b 90bc 4614 78bd 3c7d cc3d
0.11032555 -0.0041924263 0.013516914 0.012009939 0.11170171 0.06776309 0.089629166 0.012849929
-0.02836628 0.030230634 -0.040056493 -0.004898112 0.032360166 0.04529378 -0.053235147 -0.0009096063
0.097118355 0.015863424 -0.026464326 0.044853758 0.026912183 0.10094819 0.051294267 -0.0021034572
0.08508619 0.070158504 0.0042445404 -0.042014543 0.102837406 -0.017591363 -0.06056621 0.09984824

fc1.weight f4 [64, 96]
00000000: cab0 7a3d 4434 003e 5c6e dabd 0b69 9dbd
00000010: 2d71 aa3d a773 043d 7b6d f5bc 2226 533d
00000020: fbe0 76bd 469f c2bc 81fe ad3d 7871 baba
00000030: 796b c43d bce1 7abd e78a 3bbb dff4 3b3d
00000040: 296b a73d 9f33 cebc 7499 26bd 7642 e43d
00000050: 0726 20bd 8375 af3d 534d 343d 374e e13d
00000060: b53e 81bd 5d0c bcbd fea9 42bd 5c52 6b3d
00000070: 3c9c d0bc d163 953d 892f cf3d 6e7b 4dbb
00000080: 5c72 9cbd eebb 8ebd a683 8fbd 337c 33bc
00000090: f908 3c3d 292f 863c 44cc 7fbc 8343 643c
000000a0: 1451 43b9 8cae 0e3d f2d9 08bc 819d c43c
000000b0: 4f46 8cbd bc85 f13c f270 0b3e daaf 1c3d
000000c0: 2c75 83bd 6502 ed3c 4473 af3d f4f6 cabb
000000d0: 17a4 7e3d 61d6 323d a6b4 a03d 6b90 3dbd
000000e0: 0fdb edbd 277d d0bc f2a0 5b3d 8253 c8bd
000000f0: 9054 ec3d 2290 3fbc 7427 a2bd 799d 1e3c
00000100: 89a3 083e 1e12 49bd 821d 293d 081b ad3d
00000110: e469 7c3d 2e50 1d3e 2f68 d43d 9cd0 3fbc
00000120: e32e 3438 4614 1c3e cd5f 92bd a685 85bc
00000130: f479 0d3e 6b1e 8e3d c6bb e73c 1af8 533d
00000140: 5b1f 013e d8ae af3c 8f9b fb3d 4738 56bd
00000150: e041 013e 428c b93d 7b05 a53d cf7a 4dbd
00000160: 8507 133d 3815 123d 3074 43bd 438b aa3d
00000170: a570 68bc 2517 2c3c f144 74bd 8ded a93d
00000180: 1c5b d33d 1735 7f3d 395f ad3d c686 a4bb
00000190: 3308 b03c d3db ca3c d398 7dbd 8622 c23d
000001a0: ddb9 853d c97b 9dbb 5c39 b8bd dd3f 8e3c
000001b0: 894a 8abd c030 9f3d 7896 463d 543f d4bd
000001c0: eae2 82bd e98c 533d 7d36 a0bc f92c b9bc
000001d0: 0ed0 8a3d 7ac6 543c 225f 853d e8c8 393c
000001e0: 44a8 b43c 9055 913b 0d70 7ebd 520b 223d
000001f0: 2b0a cabd cf73 563d 7ba6 adbc 3fdb 0c3d
00000200: 52e9 cc3c 60d4 27bd 38d3 9cbd d50a 2ebd
00000210: 9326 8bbd e176 1e3d 8891 79bd 6ec4 9fbd
00000220: 4acd 3a3d 7b08 043d 896f 333d 6d7c 533d
00000230: f798 413c 7f7c 773d c97f 57bd fa0a a1bd
00000240: e7ba b0bd 2f53 953d fe74 d1bd 3297 ed3c
00000250: 1b74 79bd 9a86 84bd bc25 ba3d 4b67 3e3d
00000260: f008 903c 7db8 b0bd 7782 6abd 792c 913c
00000270: 137e a7bd c4bf 493d 1d5f 023d 149a 08bd
00000280: a2ac c1bd f57c 0d3d b356 8fbd c3bf ecbc
00000290: b3bd 573c 9ca5 10bd e22b 02bc 8538 b93a
000002a0: 170d 65bb 7dbe 2d3d 295d b4bc a75f bd3d
000002b0: 8e82 c9bd 1ced 753d 761a 993d 839f b33d
000002c0: 0a89 0fbb 1c2f 11bc 6ad5 f2bc 5ba1 b03d
000002d0: 5797 7fbc 4bba bfbd 12fd cebd afe3 823d
000002e0: a533 70bd 6152 373c ec95 f03c f794 45bd
000002f0: 99b2 3d3d 3d3c 21bd e036 81bd 53b5 763c
00000300: 7444 613d 64e2 c33d b1a4 f13c cdc0 98bd
00000310: 3c5d 8dbc a831 05bd 2f95 d1bc 8adf a83d
00000320: 3ce6 fbbc a684 473d 7507 9abc dba4 2dbd
00000330: fe37 683c 6ee3 ebbd bf88 d13c 6f8d aebc
00000340: 75e7 87bd afa9 9f3d d204 11bc b0f2 3cbd
00000350: f228 ac3c fdad 58bd 1400 803d 2a92 d5bd
00000360: 4f8d 0ebc ac1e 0bbd aa47 9abc 0f5b c4bd
00000370: 4c1a 2dbd a727 c3bd bb24 8cbd 8e62 b73d
00000380: ac11 cd3d 49d3 823d 469f cd3d 8141 a23d
00000390: d430 c0bd ccc3 ec3d c97d c2bd ccf8 85bd
000003a0: e840 d5bd 05cc bbbd 1b57 773d 07dd 18bd
000003b0: 9756 8f3d e0ab 48bd 70b1 c2bd 7065 c6bd
000003c0: 7a7f 37bd dd5b a1bd be32 66bd c8ad 0bbd
000003d0: 38c8 773b 50f5 16bd 1135 ca3d 9789 903d
000003e0: 00ed 913c 7ac7 8d3c 9076 973d fbc3 023d
000003f0: 828f 1c3c da27 96bd 3cb0 b73c d187 e03d
0.061203755 0.12519938 -0.10665581 -0.07686051 0.08322368 0.032336857 -0.02995943 0.05155004
-0.06027315 -0.023757588 0.084958084 -0.001422449 0.09590811 -0.061250433 -0.0028616728 0.045887824
0.08174736 -0.0251711 -0.040673688 0.11145489 -0.039098766 0.085673355 0.044019055 0.110012464
-0.063107885 -0.091820456 -0.0475254 0.05745159 -0.025465123 0.07294429 0.101164885 -0.0031354087
-0.07639 -0.069694385 -0.07007532 -0.010954904 0.045906994 0.01637991 -0.015612666 0.013932112
-0.00018626853 0.03483443 -0.008352743 0.024000885 -0.06849348 0.029482715 0.13617304 0.038253643
-0.06418833 0.028931806 0.08566907 -0.00619399 0.062168207 0.04366148 0.07846956 -0.046280306
-0.11614048 -0.025450302 0.053620286 -0.09781553 0.115395665 -0.011692079 -0.07917681 0.009681099
0.13343634 -0.049089544 0.041287906 0.084524214 0.061624423 0.15362617 0.10371434 -0.011707451
4.295901e-05 0.15242109 -0.07147179 -0.01629908 0.13816053 0.069393955 0.02828778 0.05175028
0.12609617 0.021445677 0.1228553 -0.052299764 0.12622786 0.09059955 0.08057686 -0.050165948
0.035895843 0.035664767 -0.047718227 0.08327343 -0.014187013 0.010503565 -0.05963606 0.08297262
0.10320112 0.06230649 0.08465428 -0.005020949 0.021488285 0.024763023 -0.061913323 0.09479241
0.06529591 -0.004806016 -0.089953154 0.017364437 -0.06752498 0.0777297 0.048483342 -0.103636414
-0.06390937 0.051648054 -0.019557232 -0.022604452 0.067779645 0.012986774 0.06512286 0.011339404
0.022052892 0.0044352487 -0.06211858 0.039561577 -0.09865221 0.052356537 -0.021197548 0.034388777
0.0250136 -0.04097402 -0.07657474 -0.0424908 -0.06794467 0.03868759 -0.060929805 -0.07801138
0.045605935 0.03223465 0.04380754 0.051632334 0.011816255 0.060421463 -0.0526121 -0.07863422
-0.08629399 0.07291257 -0.102273926 0.02900276 -0.060901742 -0.06470986 0.090892285 0.046485227
0.017582387 -0.08628938 -0.057253327 0.017721402 -0.081783436 0.049255148 0.03182899 -0.033350065
-0.09456755 0.034542996 -0.069989584 -0.028900033 0.013167786 -0.035314187 -0.007945033 0.0014131224
-0.003495043 0.042417992 -0.022017078 0.0924676 -0.098393545 0.06004058 0.0747575 0.08770659
-0.002190175 -0.008861329 -0.02964278 0.08624526 -0.015600047 -0.093617044 -0.10106863 0.063910834
-0.058643002 0.011189074 0.029368363 -0.048237767 0.046312902 -0.03936409 -0.06309295 0.0150578795
0.054996923 0.09564665 0.029497476 -0.07458649 -0.017256372 -0.03251806 -0.025583832 0.08245762
-0.030749433 0.048710488 -0.018802384 -0.042393547 0.014173506 -0.11517988 0.0255779 -0.021307675
-0.06635944 0.077960365 -0.008851247 -0.046129882 0.021015618 -0.052900303 0.06250015 -0.10428269
-0.008700683 -0.033964798 -0.018833 -0.095876805 -0.042261407 -0.095290475 -0.06842943 0.08954345
0.10013136 0.06387956 0.100401446 0.0792265 -0.09384313 0.11560783 -0.09496648 -0.06541595
-0.104127705 -0.09169773 0.060385805 -0.037320163 0.069989376 -0.048992038 -0.095065 -0.096873164
-0.044799305 -0.0787885 -0.056200735 -0.034101278 0.0037808549 -0.036855042 0.09873403 0.07057493
0.017813206 0.017307032 0.07395661 0.031925183 0.009555699 -0.0733182 0.022422902 0.10963405

fc1.bias f4 [64]
00000000: be55 c5bc fb5e a6bd 4736 e93d d449 e93d
00000010: b378 853b b6c8 973d 5370 abbc fd2c a63d
00000020: b1ff 0d3e 07b9 9fbd 0497 2cbd 9944 38bc
00000030: d83c a8bd 193f b23d f661 793d ea67 943c
00000040: cb26 1e3e 4c95 0c3c 74f6 1c3d fbf6 6cbd
00000050: ea3a 8ebd 39fb e5bd 651e f83d d551 e1bc
00000060: 6c98 f23a 60bc 12bc 2d51 1b3c 81f9 4bbd
00000070: 6d85 0f3d e118 1f3c aabb 9abd 5f15 063e
00000080: efa8 103d c404 e73d ac0c 053e 7391 4ebd
00000090: ae59 4cbd f074 463d f2fc 14bd 1ab8 efbc
000000a0: 2c90 d83c 00f1 b1bc f14c c3bc 6733 00bd
000000b0: c6f4 ae3c 5683 a7bc 1803 ed3d aa2c a53d
000000c0: 601c e23c baa8 98bc f3a0 cf3d f04b c9bc
000000d0: ab29 463d b5d0 733d c331 d53c 1384 893c
000000e0: ba28 253d a48b 733d 3005 9bbd 54ae c63d
000000f0: 51d4 c43d bf4b f23d 3f1a 3d3d 62f7 153e
-0.024088737 -0.08123585 0.11387306 0.11391035 0.0040732264 0.074113294 -0.020927584 0.081140496
0.1386707 -0.07798963 -0.042136207 -0.011246824 -0.0821473 0.08703441 0.06088444 0.018115956
0.15444486 0.008580517 0.038320974 -0.057852726 -0.06944831 -0.112295575 0.12115172 -0.02750484
0.001850856 -0.008956045 0.009479803 -0.049798492 0.035039354 0.009710521 -0.07555325 0.1309409
0.035317358 0.11280206 0.12993115 -0.05043168 -0.049890213 0.048451364 -0.03637404 -0.029262591
0.026435934 -0.021721363 -0.0238404 -0.03129902 0.021356951 -0.020448368 0.11572856 0.080651596
0.02760142 -0.018635143 0.101381205 -0.024572343 0.04837958 0.05952521 0.026024705 0.01678661
0.040322043 0.059459344 -0.07569349 0.09701219 0.09610809 0.11830854 0.04616761 0.1464515

fc2.weight f4 [32, 64]
00000000: 69eb a4bd 5bf3 c7bd 5a8a e3bd 3daa c0bd
00000010: fd3f e2bd 82cb febd 33e9 4ebd cdc2 ddbd
00000020: 39d3 13be 17b7 193d 1de5 bdbd 8eb9 b13d
00000030: a514 37bd 5402 75bd f0c7 79bd 3ae4 aa3d
00000040: f1e5 563d bcff cabd d717 a63d 43b2 8d3d
00000050: 9373 3e3b 1ac9 9d3d bc3c 94bc f4b2 f0bd
00000060: e4fc 993d 3eb6 a03d 28b1 efbd 7756 60bd
00000070: f56c 673d d501 483d 17f4 3fbd e9cc b1bd
00000080: 6048 bc3c 335e 6bbb d645 d0bd 929b c3bd
00000090: 0d30 503d d2d6 183d 6560 08be a1f1 b5bd
000000a0: a9eb f2ba 8e47 283d ea37 ed3a a0b8 b23d
000000b0: b65b 423d 665d f4bc b8a8 51bc f12f 2dbc
000000c0: 97fa bb3d cc66 453d 06b3 b3bd d048 bbbd
000000d0: 7f61 833d 602f 66bd 47c5 92bd a294 e73c
000000e0: 4598 a1bd 6e5f 00bc f5ce c9bd ff2c 4a3d
000000f0: d0ff ebbd 9871 b13d 613b 0bbd 48c7 9cbd
00000100: ab5a 933d 8986 43bc 925f 80bd cfad 933d
00000110: de0b 903d f8e2 70bd ff49 d93d 76c6 ab3d
00000120: 3480 cc3d e2a2 87bd fad4 563d d12c 1c3e
00000130: 0d7f 8c3d cba1 bb3d 80ef 96bd 6f53 e53d
00000140: d79c 263d e411 2b3e 99d0 ed3d fe43 83bc
00000150: 76e5 033e 3de1 67bd f81c 0c3e 63b8 203e
00000160: 6be2 63bd c2ad 13bc f203 1f3e 33a1 423c
00000170: 4d13 80bd c161 24bd c713 a0bd 5461 31bd
00000180: be3c 003d 00ac 913d 6bd9 dc3d f575 2b3e
00000190: 7fd7 893d 57e5 c43d 1203 f03d 22bc 22bc
000001a0: 65f5 913c 1e29 c53d 63df a83d 8d01 59bd
000001b0: 99f0 ce3d 0014 a7bd 41b6 8abd 16f2 b03d
000001c0: 4222 0e3e 845b 42bd 9575 a43d 05b9 263e
000001d0: 6cd4 533d b246 033e cb30 9c3c 66e7 88bd
000001e0: fb8e a93d 0b5f 333d b528 94bd 1ac4 83bd
000001f0: 64d9 633d 2039 cb3d e5c7 0abd 1720 f23b
00000200: 3e7f b5bd 565d 8ebc e782 0fbe 8082 a13b
00000210: 012e 883c c0bf ad3d d827 dabd 1688 aebd
00000220: a8bb cfbd 582d 0c3d f404 02be ca16 b43d
00000230: a811 80bd a693 933c f16d 9bbd b3b3 943d
00000240: 80f6 05be b847 cfbd e4a7 873c 0f28 48bd
00000250: 765d ddbd 7ef8 be3d d463 6abd f6f6 343b
00000260: 2285 b93c 1442 d2bd 5d15 cd3d c41f c33d
00000270: cbc7 0ebe bf5c 483c c5a7 d43d 5e2f 8d3d
00000280: 7963 c6bd 7238 a33d 6ca8 803d 4d96 2f3d
00000290: 75bb 56bd fab6 3d3d 4ee9 643c 535f 743d
000002a0: 80a5 c1bc a9a1 02be c0d2 d0bb fdd5 6ebd
000002b0: ab9d 39bd e515 66bd e3bc 5ebd 80c1 89bd
000002c0: 1320 693d dca7 ed3c 9f85 4e3c 2972 7e3d
000002d0: fdda 28bc 37a1 f9bd 4dc8 0cba 1690 583c
000002e0: 7c9d a13d 57bf b93c d147 933c b4e3 c63d
000002f0: 918b d3bd 199a 903d f4f2 e6bd b0c0 fc3c
00000300: b304 0c3b 1c07 a1bb 789b d43c f54c 5f3d
00000310: 738a 4fbc be32 bcbd 9000 3a3b 625d 0cbe
00000320: 7b4a b8bd 2bb2 cb3d 8bcc e03c 66d9 8a3c
00000330: 2400 9a3d de4c bfbd acd0 603c 65c7 ce3c
00000340: f709 bcbd c9cc 82bd 6e92 04bd a027 d1bb
00000350: 885b 25bd 87f9 9ebd 87a2 12bd cc0a 64bd
00000360: 8c3a 88bd 705d 773d 5ba8 d0bd 990f f7bd
00000370: a3d9 c33b 61af 0bbe a852 6f3d 89e5 56bc
00000380: 238c b03d 49a8 a63d 51a5 08be 9cd2 c63d
00000390: d86f 183d a0b0 00be d053 b6bb 1f7c c13d
000003a0: 1549 d7bc ca53 853c 0154 703c 1e05 ba3c
000003b0: c8f4 af3d c03b 0abe 4481 00be 8614 a1bd
000003c0: c1e3 d4bd d784 b9bc c558 cb3d 9603 e9bc
000003d0: d46d 87bd 91d7 16be 5b49 633d 14a0 023d
000003e0: 7032 013c 9a11 cebd f483 9a3d 10c8 bc3d
000003f0: 8eaa b1bd 1092 463d a820 98bd 4ac7 c3bd
-0.080527134 -0.09763213 -0.11110373 -0.094074704 -0.11047361 -0.1244116 -0.050515365 -0.10828171
-0.14436044 0.037528124 -0.092722155 0.0867797 -0.044697423 -0.059816673 -0.06098169 0.08344312
0.052465383 -0.09912059 0.08110016 0.06918766 0.0029060587 0.07704373 -0.018095367 -0.117528826
0.07518938 0.0784726 -0.11703712 -0.05476996 0.056500394 0.048829872 -0.04686364 -0.08681662
0.02298373 -0.0035914301 -0.1016957 -0.09551157 0.050827075 0.037314244 -0.13318022 -0.08883978
-0.0018533367 0.041083865 0.0018098329 0.08726621 0.047450744 -0.029829692 -0.012796573 -0.010570512
0.091786556 0.048193738 -0.087743804 -0.09144747 0.0641508 -0.056197524 -0.07166534 0.028269116
-0.07890371 -0.007835252 -0.09853927 0.049359318 -0.11523402 0.086642444 -0.033992175 -0.076551974
0.07195028 -0.011933931 -0.062682286 0.07210886 0.070335135 -0.058810204 0.10609817 0.08387463
0.0998539 -0.06622864 0.052449204 0.15251471 0.068601705 0.09161719 -0.073699 0.11197554
0.040676918 0.16706043 0.116120525 -0.016023632 0.12880501 -0.05661129 0.13682926 0.15695338
-0.05563585 -0.009013595 0.15528849 0.011879253 -0.06253681 -0.040132288 -0.07816272 -0.04330571
0.03130793 0.071128845 0.10783657 0.16744216 0.06730556 0.096140556 0.117193356 -0.00993255
0.017817209 0.09626983 0.08245733 -0.052979995 0.10104484 -0.081581116 -0.067730434 0.08639924
0.13880256 -0.047450557 0.080302395 0.16281517 0.051716253 0.12819937 0.019066235 -0.06684761
0.082792245 0.043791812 -0.07234327 -0.06433888 0.05562724 0.09923005 -0.03388204 0.0073890793
-0.0886216 -0.01737849 -0.14014779 0.004928887 0.016623499 0.08483839 -0.10652131 -0.0852205
-0.101432145 0.03422293 -0.12697202 0.08793409 -0.06253368 0.01801474 -0.07589329 0.072608374
-0.13082314 -0.10121101 0.016559549 -0.048866328 -0.10808842 0.0932474 -0.05722411 0.002761302
0.02264649 -0.1026651 0.1001384 0.09527543 -0.13943402 0.012229144 0.10383562 0.068938
-0.09686942 0.079697505 0.06282124 0.042867947 -0.052424867 0.04631708 0.01397164 0.05966122
-0.023638487 -0.12756981 -0.0063727796 -0.058309544 -0.04531638 -0.056173224 -0.054379355 -0.0672636
0.056915354 0.029010706 0.0126051 0.06212059 -0.010306117 -0.121889524 -0.00053704233 0.0132179465
0.07891366 0.022674246 0.01797858 0.097114 -0.103293546 0.07060642 -0.112768084 0.0308536
0.0021365106 -0.0049141776 0.02595304 0.05451675 -0.012667286 -0.09189366 0.0028381683 -0.13707498
-0.08998581 0.09946092 0.027441284 0.016949367 0.07519558 -0.09340833 0.013721626 0.025241563
-0.09181588 -0.06386716 -0.03236621 -0.0063828975 -0.040370494 -0.07762437 -0.03579953 -0.05567436
-0.06651792 0.060391843 -0.10188361 -0.12063522 0.005976872 -0.1364112 0.058428437 -0.013116249
0.08620479 0.081375666 -0.13344313 0.09708139 0.037216038 -0.12567377 -0.0055641904 0.09447502
-0.026279965 0.016275305 0.014668466 0.022707518 0.0859161 -0.13499355 -0.12549311 -0.07865243
-0.10395003 -0.02264635 0.09929041 -0.028444093 -0.06612745 -0.1473067 0.05548988 0.031890944
0.00788556 -0.10061951 0.07544699 0.092178464 -0.08675109 0.04847914 -0.07428104 -0.09559496

fc2.bias f4 [32]
00000000: 0062 e93c fed5 9d3b c02e 9bbd 0ffc 3dbb
00000010: bd37 03bd 51e6 5c3d 7f0e 78bd 9ff8 133e
00000020: 379e 0b3e 699e 79bd 33a9 07be 40c5 573d
00000030: 5ec4 17be ae7c edbd 5ac1 64bc 4513 933d
00000040: 5fbc 243e de53 9e3c d230 d5bd c770 8e3d
00000050: f11a 053d c583 23bd ad28 b4bd cdc2 913d
00000060: 01f2 febd f0f0 80bd 3ec9 8bbd a2b2 d6bd
00000070: 4eff 723d 34bb 093d b5ac 963c 559b 783d
0.028489113 0.0048167696 -0.07577276 -0.002898935 -0.032035578 0.053930584 -0.0605607 0.1445031
0.13634573 -0.060942087 -0.13248138 0.052678347 -0.14821002 -0.115960464 -0.013962114 0.0718141
0.16087483 0.0193271 -0.10409702 0.06955104 0.032496396 -0.039920587 -0.08796821 0.071172334
-0.12448502 -0.06295955 -0.06825493 -0.1048329 0.05932551 0.033625796 0.0183929 0.06069501

output.weight f4 [1, 32]
00000000: 6206 0cbe ab10 463e f8e7 debd f823 10be
00000010: 7c27 c0bc 719d f0bd b6cd 8b3d 3c64 2d3e
00000020: 3696 8c3d 24c6 473e 3e95 c9bd 3c35 663e
00000030: ba4e 1539 0716 f4b8 f0ac 3a3e 3aec 3e3e
00000040: 126d 803d 657c 1c3c 2c87 f2bc f0e7 323e
00000050: b31b 413e 10c3 94bd 5760 d2bd e8ac 143e
00000060: 93d3 90bc 8fc3 9bbc 137f 0a3e 1b16 8bbd
00000070: ae79 8ebc c74a 0ebe 9078 c13d 51f1 4a3d
-0.1367431 0.19342296 -0.10884088 -0.14076221 -0.023456328 -0.117487796 0.068263456 0.16932768
0.06864588 0.19509178 -0.09842919 0.22481245 0.00014239075 -0.000116389296 0.18230033 0.18644801
0.062708035 0.009551142 -0.02960547 0.1747129 0.18858223 -0.07263768 -0.102722816 0.14519083
-0.017679011 -0.019014148 0.13525037 -0.06791326 -0.017392006 -0.13895713 0.094468236 0.049546544
